Dimensions: 60000 x 784
Type 'part' to use a part of your dataset: Type 'create' if you want to create your own model: inChannel: Batch Size: Epochs: 0.05
0.05
0.05
0.05
0.05
0.05
Type 'pre' to use pretrained model: Model: "functional_1"
_________________________________________________________________
Layer (type)                 Output Shape              Param #   
=================================================================
input (InputLayer)           [(None, 28, 28, 1)]       0         
_________________________________________________________________
conv2d (Conv2D)              (None, 28, 28, 32)        320       
_________________________________________________________________
batch_normalization (BatchNo (None, 28, 28, 32)        128       
_________________________________________________________________
conv2d_1 (Conv2D)            (None, 28, 28, 32)        9248      
_________________________________________________________________
batch_normalization_1 (Batch (None, 28, 28, 32)        128       
_________________________________________________________________
max_pooling2d (MaxPooling2D) (None, 14, 14, 32)        0         
_________________________________________________________________
conv2d_2 (Conv2D)            (None, 14, 14, 64)        18496     
_________________________________________________________________
batch_normalization_2 (Batch (None, 14, 14, 64)        256       
_________________________________________________________________
conv2d_3 (Conv2D)            (None, 14, 14, 64)        36928     
_________________________________________________________________
batch_normalization_3 (Batch (None, 14, 14, 64)        256       
_________________________________________________________________
max_pooling2d_1 (MaxPooling2 (None, 7, 7, 64)          0         
_________________________________________________________________
dropout (Dropout)            (None, 7, 7, 64)          0         
_________________________________________________________________
conv2d_4 (Conv2D)            (None, 7, 7, 128)         73856     
_________________________________________________________________
batch_normalization_4 (Batch (None, 7, 7, 128)         512       
_________________________________________________________________
conv2d_5 (Conv2D)            (None, 7, 7, 128)         147584    
_________________________________________________________________
batch_normalization_5 (Batch (None, 7, 7, 128)         512       
_________________________________________________________________
dropout_1 (Dropout)          (None, 7, 7, 128)         0         
_________________________________________________________________
conv2d_6 (Conv2D)            (None, 7, 7, 256)         295168    
_________________________________________________________________
batch_normalization_6 (Batch (None, 7, 7, 256)         1024      
_________________________________________________________________
conv2d_7 (Conv2D)            (None, 7, 7, 256)         590080    
_________________________________________________________________
batch_normalization_7 (Batch (None, 7, 7, 256)         1024      
_________________________________________________________________
dropout_2 (Dropout)          (None, 7, 7, 256)         0         
_________________________________________________________________
conv2d_8 (Conv2D)            (None, 7, 7, 256)         590080    
_________________________________________________________________
batch_normalization_8 (Batch (None, 7, 7, 256)         1024      
_________________________________________________________________
conv2d_9 (Conv2D)            (None, 7, 7, 256)         590080    
_________________________________________________________________
batch_normalization_9 (Batch (None, 7, 7, 256)         1024      
_________________________________________________________________
dropout_3 (Dropout)          (None, 7, 7, 256)         0         
_________________________________________________________________
conv2d_10 (Conv2D)           (None, 7, 7, 128)         295040    
_________________________________________________________________
batch_normalization_10 (Batc (None, 7, 7, 128)         512       
_________________________________________________________________
conv2d_11 (Conv2D)           (None, 7, 7, 128)         147584    
_________________________________________________________________
batch_normalization_11 (Batc (None, 7, 7, 128)         512       
_________________________________________________________________
dropout_4 (Dropout)          (None, 7, 7, 128)         0         
_________________________________________________________________
conv2d_12 (Conv2D)           (None, 7, 7, 64)          73792     
_________________________________________________________________
batch_normalization_12 (Batc (None, 7, 7, 64)          256       
_________________________________________________________________
conv2d_13 (Conv2D)           (None, 7, 7, 64)          36928     
_________________________________________________________________
batch_normalization_13 (Batc (None, 7, 7, 64)          256       
_________________________________________________________________
up_sampling2d (UpSampling2D) (None, 14, 14, 64)        0         
_________________________________________________________________
dropout_5 (Dropout)          (None, 14, 14, 64)        0         
_________________________________________________________________
conv2d_14 (Conv2D)           (None, 14, 14, 32)        18464     
_________________________________________________________________
batch_normalization_14 (Batc (None, 14, 14, 32)        128       
_________________________________________________________________
conv2d_15 (Conv2D)           (None, 14, 14, 32)        9248      
_________________________________________________________________
batch_normalization_15 (Batc (None, 14, 14, 32)        128       
_________________________________________________________________
up_sampling2d_1 (UpSampling2 (None, 28, 28, 32)        0         
_________________________________________________________________
conv2d_16 (Conv2D)           (None, 28, 28, 1)         289       
=================================================================
Total params: 2,940,865
Trainable params: 2,937,025
Non-trainable params: 3,840
_________________________________________________________________
Epoch 1/10
  1/480 [..............................] - ETA: 0s - loss: 0.2845  2/480 [............................
…
