…
Digits:  0 1 2 3 4 5 6 7 8 9
labels: [0 1 2 3 4 5 6 7 8 9]
Type 'create' if you want to create your own model: inChannel: Batch Size: Epochs for fully connected part: Epochs for whole model: Type 'pre' to use pretrained model: Model: "functional_1"
_________________________________________________________________
Layer (type)                 Output Shape              Param #   
=================================================================
input (InputLayer)           [(None, 28, 28, 1)]       0         
_________________________________________________________________
conv2d (Conv2D)              (None, 28, 28, 32)        320       
_________________________________________________________________
batch_normalization (BatchNo (None, 28, 28, 32)        128       
_________________________________________________________________
conv2d_1 (Conv2D)            (None, 28, 28, 32)        9248      
_________________________________________________________________
batch_normalization_1 (Batch (None, 28, 28, 32)        128       
_________________________________________________________________
max_pooling2d (MaxPooling2D) (None, 14, 14, 32)        0         
_________________________________________________________________
conv2d_2 (Conv2D)            (None, 14, 14, 64)        18496     
_________________________________________________________________
batch_normalization_2 (Batch (None, 14, 14, 64)        256       
_________________________________________________________________
conv2d_3 (Conv2D)            (None, 14, 14, 64)        36928     
_________________________________________________________________
batch_normalization_3 (Batch (None, 14, 14, 64)        256       
_________________________________________________________________
max_pooling2d_1 (MaxPooling2 (None, 7, 7, 64)          0         
_________________________________________________________________
dropout (Dropout)            (None, 7, 7, 64)          0         
_________________________________________________________________
conv2d_4 (Conv2D)            (None, 7, 7, 128)         73856     
_________________________________________________________________
batch_normalization_4 (Batch (None, 7, 7, 128)         512       
_________________________________________________________________
conv2d_5 (Conv2D)            (None, 7, 7, 128)         147584    
_________________________________________________________________
batch_normalization_5 (Batch (None, 7, 7, 128)         512       
_________________________________________________________________
dropout_1 (Dropout)          (None, 7, 7, 128)         0         
_________________________________________________________________
conv2d_6 (Conv2D)            (None, 7, 7, 256)         295168    
_________________________________________________________________
batch_normalization_6 (Batch (None, 7, 7, 256)         1024      
_________________________________________________________________
conv2d_7 (Conv2D)            (None, 7, 7, 256)         590080    
_________________________________________________________________
batch_normalization_7 (Batch (None, 7, 7, 256)         1024      
_________________________________________________________________
dropout_2 (Dropout)          (None, 7, 7, 256)         0         
_________________________________________________________________
flatten (Flatten)            (None, 12544)             0         
_________________________________________________________________
dense (Dense)                (None, 128)               1605760   
_________________________________________________________________
batch_normalization_8 (Batch (None, 128)               512       
_________________________________________________________________
dropout_3 (Dropout)          (None, 128)               0         
_________________________________________________________________
dense_1 (Dense)              (None, 10)                1290      
=================================================================
Total params: 2,783,082
Trainable params: 1,607,306
Non-trainable params: 1,175,776
_________________________________________________________________
Epoch 1/30
  1/480 [..............................] - ETA: 0s - loss: 4.2556 - accuracy: 0.0700
…
